model/best_model.pth (torch, 295394 bytes, 13 tensors)

cnn_layers.0.weight f4 [16, 3, 3, 3]
00000000: bed0 00be 5c20 74bc 4a0d 21be 6d8c a0bc
00000010: eae9 b33d 48f9 2abe 4643 c33d 22ce a53d
00000020: a64b 133e ad04 25be 9d38 52be 102f 343e
00000030: cdf7 6abd a6f1 4c3d 4cda 363e 2f16 0b3e
00000040: 3c9d 80bd 51fe 54bd 282b dcbd 684a e53d
00000050: 0547 d23d b2a0 bdbd 1d04 92bd e2e2 213e
00000060: 514e d43d 05d3 87bc d8ff efbd 687f 39bc
00000070: ef83 0dbe b9bc 5ebd 6bb8 ecbd 7b83 d4bc
00000080: c5f7 bcbc 9fa3 f3bd 0b11 f6bd a4b5 11be
00000090: 868f 14be 85f4 773c 427d 36bd a60c 45be
000000a0: 2d93 083e 3d66 e7bd 2aeb a33d 7761 3c3d
000000b0: deb7 0e3d c9e0 2abe 310d 71bc d5f9 f23d
000000c0: e4dd d1bb 39c9 e33d d79a 38be 977e a1bd
000000d0: 0826 483d 0643 59bc ac47 4b3e a8f1 1c3e
000000e0: f809 c2bd 2ef3 663e 2b2e 9cbd a71a c53d
000000f0: 3e8d 283d 239d 533d 7f54 1b3e e965 35be
00000100: e97b 4abe 95f7 99bd 2901 333d dd80 46bd
00000110: 09a8 7a3e de58 f9bd a798 0e3e 5851 01be
00000120: 647e 24bc c62d 7bbe e56b 19be f58b 01be
00000130: 7fef 5ebc 44d7 e2bd 9641 d23c d815 943d
00000140: 958c ff3d f91f 26be 2a45 973d 9ffc f63d
00000150: 7a4a db3d df77 5a3d 07a5 5fbd ac0e 0ebe
00000160: 7acc a63d 8578 483d 6a8a d83d 0e42 2b3e
00000170: 32a6 35be b4d5 27bd c27d 55bb fe7e b13c
00000180: e823 33be 7f59 cd3d 071a 2d3e 6ffa acbd
00000190: 4335 9e3d f0a9 823d 5dfd 1d3e 6449 fc3d
000001a0: 47ea dbbc 7530 adbd 2bb2 c4bc 4ebe 113e
000001b0: 95c1 1e3d 3b01 2d3e 3fbe 0b3e d515 443e
000001c0: f317 553c 4939 42bd 2d7a 40be 1108 433e
000001d0: 1a04 22bd 0bbc 5d3c c14c b8bd 4895 423e
000001e0: 3fc5 8ebd 716c 25be 0fba 28bd b6d1 d13d
000001f0: 57ee 29bd f4aa e93d b956 52bd 4843 383e
00000200: e311 23be 7e56 89bc 46ce 393d 56bc a13d
00000210: 9733 403d a57c ecbd b4f9 233e 7f0e f33d
00000220: d799 bc3d e428 ddbd 66f5 26be d30c 1c3d
00000230: 2603 9a3d e5c3 253e 4936 21be e3cb 4ebe
00000240: b644 13be 7cb1 843d cc8c 76bd aa77 47be
00000250: 05f5 173e 5aa1 c8bd 15b4 963d e37a 25bd
00000260: 31d7 3cbe 59b1 c13d e8da 863d 349c 86bd
00000270: 3478 0fbe b7e1 1ebe 258e d03d e158 063e
00000280: 373c 4cbd 0e7d 93bd 9187 15bd 720e 4abd
00000290: a6df 19bc ae3c 383d 425e e23d 3dea 51be
000002a0: 0480 b33d a6b7 77bd a78a 0c3e f13f c4bd
000002b0: 674d 4fbe 4a84 653b 6639 13be a626 b2bd
000002c0: 5b67 43be be6c 453e c5f6 2fbe 83ae 733d
000002d0: 5e33 4fbe 21f6 86bd 8ab4 06be 758d 18be
000002e0: f0c8 5bbe 639a 68bd c049 a7bc 25f9 bd3d
000002f0: b9d0 dbbb bb8c e43c b160 33bd ced9 2fbe
00000300: 33a4 03be c2a6 4b3d d92b e63d 7400 b73d
00000310: 0226 353e f957 c23d 10e5 35be 2c6b 0cbe
00000320: 35f8 f5bd 2091 813d 486b 1b3d 2c15 7dbd
00000330: 9fc4 33bd defa 28be ba12 3fbe 0210 29be
00000340: 9202 043e a150 9b3d 0a79 da3c ed82 08be
00000350: 9670 b33d 1449 b8bc 17d1 1f3d 4e95 91bd
00000360: 74cd 123e 5ea6 2e3e e1be 2d3e 7c58 42be
00000370: 113c 08be f83a 1e3c fcf0 b13d 2663 c3bc
00000380: 6ae5 89bd 602e 05bd aa93 293d 5b15 1a3e
00000390: 8532 0dbe 7d6b ef3d 3a47 2cbe 5ac4 383e
000003a0: cd38 5fba 5f7f 23be 06d3 073e 0fd5 82bd
000003b0: b6c0 0ebe fb40 16be acb3 223e aba2 1ebe
000003c0: 96c1 713d 9f89 973d 5d23 07be 9a6e ccbc
000003d0: 19a2 f5bc 288a 95ba 5527 793d a27d be3b
000003e0: 002c 933c 788e 4ebe 53d5 60be 195c ae3d
000003f0: d3a9 36be 11f4 04be 36a5 3abe d5c2 0abe
-0.12579629 -0.014900293 -0.15727726 -0.01959821 0.0878485 -0.16696656 0.09534316 0.08095957
0.14384326 -0.16115065 -0.20529409 0.17596078 -0.057365227 0.05003514 0.17856711 0.13582681
-0.0627999 -0.052000348 -0.10750419 0.111958325 0.10267452 -0.09259166 -0.07129691 0.15809205
0.103665 -0.016580114 -0.1171872 -0.01132188 -0.1381986 -0.0543792 -0.115586124 -0.025941601
-0.023067364 -0.118964426 -0.120149694 -0.14229447 -0.14507875 0.015133982 -0.04455305 -0.19243106
0.13337393 -0.11298797 0.08003838 0.045991387 0.03484332 -0.16687311 -0.014712618 0.11864058
-0.0064046253 0.111223646 -0.18027817 -0.07885473 0.048864394 -0.013260609 0.1985156 0.1532656
-0.09474558 0.22553703 -0.07625993 0.09624224 0.041150324 0.05166353 0.15168951 -0.17714657
-0.1977383 -0.07517926 0.04370228 -0.048462737 0.24478163 -0.12175153 0.1392542 -0.12628686
-0.0100398995 -0.2452918 -0.14982565 -0.12651046 -0.013606905 -0.11076215 0.02566604 0.07230729
0.12477986 -0.16223134 0.07386239 0.120599024 0.10707565 0.053336974 -0.05460074 -0.13872784
0.081444696 0.04894306 0.105732754 0.16724417 -0.1773918 -0.040975288 -0.0032576178 0.021667
-0.17494166 0.10026836 0.1690446 -0.08446204 0.077250026 0.06380069 0.15428682 0.12318686
-0.02684511 -0.08456508 -0.024010738 0.14232752 0.038758833 0.16895 0.13646792 0.19148953
0.013006198 -0.047417913 -0.18796606 0.19046046 -0.039554693 0.0135336025 -0.08999015 0.19002259
-0.069712155 -0.16154648 -0.041193064 0.10245077 -0.041487064 0.1140956 -0.051352236 0.17994416
-0.15924792 -0.016764876 0.045362733 0.0789725 0.0469242 -0.115472116 0.16013223 0.11867999
0.0920903 -0.10798815 -0.1630455 0.038098168 0.07520132 0.16188009 -0.15743364 -0.20194964
-0.1438168 0.06479165 -0.060192868 -0.19479242 0.14839561 -0.097964 0.07358567 -0.040400397
-0.18441464 0.094576545 0.06584722 -0.06572762 -0.14010698 -0.15515791 0.10183362 0.13119842
-0.049862113 -0.07201587 -0.03650624 -0.049330182 -0.009391701 0.044979744 0.110531345 -0.20499511
0.087646514 -0.060477875 0.13724767 -0.09582508 -0.2024437 0.0035021477 -0.14377365 -0.08698778
-0.19082396 0.19279763 -0.17183979 0.0594926 -0.20234439 -0.06589914 -0.13154808 -0.14897712
-0.2146337 -0.05678786 -0.020420909 0.09276036 -0.0067082313 0.027899137 -0.043793384 -0.1717293
-0.12855606 0.04971958 0.11238832 0.08935633 0.1769028 0.09489436 -0.17763162 -0.13712758
-0.12010232 0.063265085 0.03794411 -0.06178777 -0.043888684 -0.16501948 -0.18659487 -0.16510013
0.12891605 0.07583738 0.026669044 -0.13331194 0.087617084 -0.022495784 0.039017763 -0.07108556
0.14336187 0.17055652 0.16967346 -0.18979067 -0.13304164 0.009657614 0.08688542 -0.023850989
-0.067332104 -0.03251493 0.04140059 0.15047209 -0.13788803 0.11690424 -0.16824046 0.18043652
-0.0008515239 -0.15966557 0.13264093 -0.06388294 -0.13940701 -0.14673226 0.15888852 -0.1549174
0.05902251 0.07399296 -0.13197084 -0.024955083 -0.02998452 -0.0011408972 0.060828526 0.0058133164
0.017965317 -0.20171535 -0.21956377 0.0851366 -0.1783822 -0.12983729 -0.18227085 -0.13550885

cnn_layers.0.bias f4 [16]
00000000: 8e00 31be 1e70 bcbd 50fa a73c c105 153e
00000010: b08e 8dbc f1f6 9a3d febe 5c3d 2ca1 e7bd
00000020: f760 27be 9d2c 213e 6124 20be 6a7b b1bd
00000030: 1337 04be a07f 2bbe 8e20 813d bd2d b93d
-0.17285368 -0.09201072 0.0205051 0.14552976 -0.017279953 0.075666316 0.05389308 -0.11310038
-0.16345583 0.15739675 -0.15638877 -0.086661175 -0.12911634 -0.16747904 0.063050374 0.09041927

cnn_layers.3.weight f4 [32, 16, 3, 3]
00000000: 72a4 8c3c e610 e6bc e6ce 43bd 5294 ce3c
00000010: ecc7 58bd b15c c1bc 9c1b 683d 282a 3cbc
00000020: a8b6 3bbd 70e0 ea3c 3647 7ebc 20d0 a7bd
00000030: 66d4 61bd 006e 8e3c 90cd c8bc be9b 43bd
00000040: 9485 8c3d 0b8e 993c 7fef 413d a812 c03c
00000050: 6789 9ebd ad9a 32bd 28df 7dbd 9d01 e03c
00000060: 139c 26bd 2fd0 973d 5316 4ebd bd60 c13c
00000070: 4d2b bfbb 705c 46bd 2594 883d 3126 6d3d
00000080: e22b 18bd b557 8dbc 09c1 71bd d13a 33bd
00000090: 67de 23bd 8d58 d13c f23b 61bd 1685 7abd
000000a0: a5d0 703b 7899 8d3d d8f8 85bd 0fcb 0b3d
000000b0: b5d3 e43c 2b99 993d 7d60 61bd 0921 253d
000000c0: ec9f 883d 888f 283d 134e 92bd 6611 95bd
000000d0: 213b 9cbd 1a44 98bd 0a48 15bd 0df7 9dbd
000000e0: 19b0 863b fb52 253d a3f5 5b3a e800 8f3d
000000f0: ebe0 523d 80c5 ebbc 8000 2f3d 59c8 8d3d
00000100: f152 a4bc 8d56 113d f04d aabd e645 e23b
00000110: 08d9 aebd 2953 833c 56fe ae3d 1403 8b3d
00000120: ef46 833d fd93 7abc f15b 9fbd c0cc 08bd
00000130: 9c3e b93c 4975 8dbc d73c 9dbd a6a3 adba
00000140: 5f80 0fbd 7169 4cbd 3259 df3c 086e 89bd
00000150: 3062 f0bc 776f 0f3d f6b8 383d 1da0 2f3d
00000160: 0bcc 19bd 74e2 18bd 287e 79bd 1c74 30ba
00000170: 5e9a 3d3d 4181 2dbd 5af3 c23c f2b4 91bc
00000180: 20b8 2d3c 7293 d83c 34f2 91bd 94f6 5f3d
00000190: eea5 803d 99ce 8dbd acb7 7f3d dfc0 31bd
000001a0: a9d3 24bd ddf6 3fbc ddfe 953d c63f 433c
000001b0: 02d9 893d 50f0 9f3c 28dc 7abd 767e b1bc
000001c0: a6f1 b83c a672 be3c 168d 713d 40f6 95bd
000001d0: 8bac 1bbd 9257 e93c 3b36 e63c e6cd 0dbd
000001e0: 68cc 323c 873e 58bd 6f64 08bd f17c 13bd
000001f0: ae7a 22bd e21d 4e3d e962 3cbd d64c a43c
00000200: 11d0 ed3c 65c8 c4bc a600 43bd fa3d d9ba
00000210: 9dd1 9b3d b3c6 b73c df9a a53c 7266 fb3c
00000220: bad3 223d 327b 80bd 8758 93bd e13b 51bd
00000230: 7bec 673c cced 9d3d 6216 8a3c 2435 65bd
00000240: 2080 76bd 8553 56bd e9de bcbb f7b1 29bd
00000250: f4ba 28bb 32d3 983d a413 2abd 5ebc 4c3d
00000260: c9d5 123d d172 673d 0c71 d13c 2c50 c4bd
00000270: 21e8 82bd 9d86 36bd d9df e93c f888 823d
00000280: 7756 72bd a26d 48bd 09f4 0bbd ce2d 13bd
00000290: ed65 32bd c5d2 07be 6890 0dbd 32ea 12bd
000002a0: 055b 8cbb fd30 f4bd 324a 5a3c 795c 2b3d
000002b0: 7b26 c63c 3100 c0bd bb6d 873d 1d04 923c
000002c0: 338d bd3c 3a34 6a3d ce39 b7bc c075 cebd
000002d0: 8c5b c23c 3355 92bd 584e 9bbd 3d72 5cbd
000002e0: d31a 9bbc eac2 083d fae5 85bd 3821 bcbd
000002f0: ca7b 76bd bcfc 993d af42 123c 1094 4e3d
00000300: 5f03 013d e8ed a83d 716b e9bb 64b2 aebd
00000310: 8d5d 9abc 1606 08bc 1f1b cdbc 04b8 1d3d
00000320: 4baf f1bc eb06 3d3d ea5f 8bbd a329 f93c
00000330: f5d2 b2bd c094 d93b 2977 553d 21cd abbd
00000340: 826c 89bd c8c2 7fbd 6540 9c3d 4ecf 00bc
00000350: b7de 983c e464 653d b438 7f3b 9219 913c
00000360: 59f4 b83c 283b 553d 869b 813c 1bb4 673d
00000370: dbe6 863d 9b1c 9abd 9289 18bc 9782 05bd
00000380: 09f8 843b 64a2 043a 1775 a43c 0679 b7bd
00000390: 8511 88bd 40fe 1abd 75ba 6abc f146 85bd
000003a0: 9410 3fbc 657f a8bc 2248 3f3d 0514 763d
000003b0: d048 a03b 72b6 113d a429 7e3d 5bb8 6abc
000003c0: 79ee 5f3d 45dd 60bd 7a02 8abd 5b54 6f3d
000003d0: 8b8e 2e3d ede4 253d 7046 b33d 9dd8 803d
000003e0: 5850 3bbd 548f 493d 04d0 5e3d 4eed b53d
000003f0: 2011 8abc ace4 a9bd 1ac7 80bd 009c d739
0.017168257 -0.02808423 -0.047804736 0.025217209 -0.052925035 -0.023603769 0.056666955 -0.01148466
-0.04582849 0.028671473 -0.015519908 -0.081939936 -0.0551342 0.017386436 -0.024512082 -0.04775595
0.068614155 0.01874449 0.047347542 0.023446396 -0.07741051 -0.04360454 -0.061980397 0.02734452
-0.040676188 0.07412755 -0.05031426 0.023605699 -0.0058340193 -0.048428 0.06668881 0.05789775
-0.037151225 -0.017253736 -0.059021983 -0.043757264 -0.04000702 0.02555492 -0.05498881 -0.061162077
0.0036745456 0.069140375 -0.06541604 0.0341292 0.027932981 0.074999176 -0.05502366 0.040314708
0.06671128 0.041152507 -0.07143798 -0.07278709 -0.076284654 -0.07434864 -0.036445655 -0.07713137
0.004110348 0.04036234 0.000839079 0.06982595 0.05148403 -0.028780699 0.042725086 0.06922979
-0.02005908 0.035482932 -0.08315647 0.006905305 -0.08537489 0.016030865 0.085446045 0.067876965
0.06410014 -0.015294072 -0.07781208 -0.03339839 0.022612862 -0.01726784 -0.0767762 -0.0013247624
-0.035034534 -0.049905244 0.027264211 -0.0671044 -0.029343694 0.03501841 0.045098267 0.042877305
-0.037548106 -0.037325338 -0.060911328 -0.0006731169 0.046289794 -0.042359594 0.02379768 -0.017786477
0.010602981 0.026437495 -0.07126275 0.054678515 0.062816486 -0.06924171 0.062431023 -0.043396827
-0.040240917 -0.011716572 0.07324002 0.01191706 0.06730844 0.01952377 -0.061245114 -0.021666747
0.022576164 0.023248028 0.05897244 -0.07322359 -0.038006347 0.02848414 0.028102031 -0.03462019
0.010912992 -0.052794006 -0.033298906 -0.036007825 -0.039667778 0.050321467 -0.045992766 0.02005617
0.029029878 -0.024021337 -0.04760804 -0.0016574257 0.0760834 0.022433614 0.02021545 0.030688498
0.0397527 -0.06273498 -0.071946196 -0.051082496 0.014155502 0.07711372 0.016856376 -0.055958882
-0.060180783 -0.052325744 -0.0057638776 -0.041429486 -0.0025746198 0.07462157 -0.041522637 0.04998433
0.035848413 0.05650598 0.0255666 -0.09585604 -0.06391931 -0.04456197 0.028549122 0.06373781
-0.05916449 -0.04893268 -0.034168277 -0.035932355 -0.043554235 -0.13263996 -0.034561545 -0.035867877
-0.0042833113 -0.11923406 0.013323354 0.041836236 0.02418827 -0.093750365 0.06612726 0.017824227
0.023138618 0.057178713 -0.02236643 -0.10081053 0.023725294 -0.07145157 -0.07583302 -0.053819884
-0.01893369 0.03338901 -0.06538005 -0.091860235 -0.06017665 0.075189084 0.008927031 0.050434172
0.031497356 0.08248502 -0.0071234037 -0.08530119 -0.018843437 -0.008302232 -0.025037346 0.03850557
-0.029502532 0.046149176 -0.068054035 0.030415362 -0.08731643 0.006640047 0.052115593 -0.083887346
-0.06710149 -0.062441617 0.0762947 -0.007861925 0.018660886 0.05600442 0.003894371 0.017712388
0.022577452 0.05205837 0.01582123 0.056568246 0.06587001 -0.07524987 -0.009310143 -0.032595243
0.0040578884 0.00050595985 0.020075364 -0.0895863 -0.066439666 -0.037840128 -0.014326681 -0.065076716
-0.011661667 -0.020568559 0.04669965 0.060077686 0.0048914924 0.035574384 0.06205143 -0.01432618
0.054670785 -0.05489852 -0.067387536 0.058430057 0.04261641 0.040501524 0.08753669 0.06291316
-0.04573092 0.049208954 0.054397598 0.08883153 -0.016853869 -0.08295569 -0.062879756 0.00041124225

cnn_layers.3.bias f4 [32]
00000000: b767 90bc 874f 6cbd ab55 363d c632 043d
00000010: b7c8 33bd fc6c 98bd 8e11 8d3d 3ceb cabc
00000020: 7311 433d 3d7c 033c 1f3b 9d3d c26b b2ba
00000030: 4bc1 59bd bb85 43bd cb90 8cbb 64ea 7bbd
00000040: f37f ea3b 186e b7bd 2b14 a0bc c033 ebbc
00000050: d48a d63c 9acb f43a 55a3 f93c 33f6 5c3c
00000060: 1e94 c73c 491f 2a3d 44ab 95bd 086b 89bd
00000070: d302 51bc adcf eebc d8a7 77bd 300d 573c
-0.01762758 -0.05769303 0.044515293 0.032274984 -0.04389259 -0.07442662 0.06888114 -0.024770372
0.047624063 0.008025226 0.07677292 -0.0013612437 -0.053162854 -0.047734957 -0.0042897216 -0.06150283
0.007156366 -0.089565456 -0.019540867 -0.0287112 0.026189245 0.0018676401 0.03047339 0.013486433
0.02436262 0.041533742 -0.07308057 -0.06709868 -0.012757021 -0.029151762 -0.060462803 0.013125703

fc_structured.0.weight f4 [128, 43]
00000000: 9278 093e e2fb c1bd 8b14 a3bd a87c 923c
00000010: 7372 43bd 427c 51bd 96fa fa3d ae00 a73d
00000020: 95a9 95bd df86 933d 88bc 8dbd d58d b6bd
00000030: c392 563a 753c f53d ebf4 c23d 9801 f4bd
00000040: 3268 15be 0fa9 bebd b48f b4bd 718b 15be
00000050: 492f dbbc 921b ed3c c1ca e13d 0bb0 e73d
00000060: 6fc1 6bbd 37ec 54bd 9f23 903b b927 da3d
00000070: 15f4 9ebd a9a3 b33d c6bb d0bd 4215 8bbd
00000080: d33f 673d 871f 80bd d026 783c 1b01 0cbe
00000090: ae3c 013e b985 0f3e 9689 4fbe cde5 0e3e
000000a0: 4f42 ee3d 4c95 373d f2a3 153d e5e9 1d3e
000000b0: 844a f23d 4a2e cb3d b5e8 103e cb49 09bd
000000c0: 7105 183e 5384 edbc 1778 01be 4212 45bd
000000d0: c742 dabd 33b1 afba 1e80 103e 9659 dcbd
000000e0: 7b39 e13d c0f7 c5bd 6be6 fb3d 172d 35bd
000000f0: c86a d8bd cc0e e2bd f022 38bd 2599 05be
00000100: a084 013e 8711 89bb 98cc f5bd edeb 793d
00000110: 518c dbbd 5e22 97bd bacd a5bd 2620 c4bc
00000120: c06e 1ebd 6531 d2bd ace3 0f3e 2957 fb3d
00000130: 9c07 0ebd ab1f da3d 6809 fbbd dc7d e3bd
00000140: fe17 febd 8b7b 72bc aa58 803d 5cb2 b8bd
00000150: 1ded fb3d ad32 1bbe dd3b bfbd 5906 a83d
00000160: 42af b8bd e65c 69bd 61ec 0f3d ad78 eebd
00000170: 82ce 973d 1f70 c83d a8a9 d8bd de5c b1bd
00000180: 051d 0cbd 1b08 273d 0e31 053e 405d 803d
00000190: 3219 a2bd 4ec7 8abd 3a63 17bd 82dd 01be
000001a0: 99a6 c93c 9c09 d03d a130 f23d 1046 513d
000001b0: 4367 173e 8f82 91bd ed60 e23c bf80 f3bd
000001c0: b9a6 fc3c 51d0 9fba 73e7 233d 38c2 09be
000001d0: 4637 983c b073 f3bd d12f 4b3c 0cd4 ff3d
000001e0: 0613 ec3d 33b8 193e a2da ca3d 1086 1bbd
000001f0: ac29 133e c1e3 193e 6d0e a6bd d117 ad3d
00000200: 8ec4 183e f28f a6bd 623e c63c cf0e d33d
00000210: ec75 583d 8ad0 093e 2352 193e 9a07 263d
00000220: b51b 1d3d a412 b0bd eadd e7bd f477 103a
00000230: 3cf2 1b3e e1b8 05bd d742 003e 7b2b 963d
00000240: 7606 703d 33a9 05be c95c 6fbd 8482 0a3e
00000250: 52ec 32bd 314d b83d 0b96 093e 85c6 eabd
00000260: 9f93 e33d d4be 85bd 6d49 e53c b1a4 16be
00000270: a796 1a3e 9a6d ccbd a318 0c3e 1768 30bc
00000280: 9b7b 17be 5177 aa3d f6cd 86bd 77a3 b8bd
00000290: d03e 0fbe e9dc 3fbd bede 17be c3a7 03be
000002a0: eff4 b2bc fd16 373d 72f2 17be f688 d5bd
000002b0: 8501 113e 55a7 09bd b932 0d3e 7cec 05be
000002c0: 0e7d 013e 4c13 c0bc cac1 a7bc 892b c4bd
000002d0: a631 0abe b3c6 9dbd 93bb 433d 158e 4d3d
000002e0: cf2b dbbd 9ded c93d 1383 d2bd e7a7 7fbc
000002f0: 21e7 adbd 1fdd c93d 3d29 d03d 87fb db3d
00000300: e01a 143e 039d 03be ff3b 8fbd 5032 a53d
00000310: 763f 5ebb 878c 48bd 5f00 073e 0134 143d
00000320: c398 9dbd d52b e53c bd1d b6bc 6655 143e
00000330: 9c42 68bd dbf0 f8bd bd5e 193e 26dd 893d
00000340: 682f 1d3d e7cc ee3d 11b8 0b3e e00d 013e
00000350: 0dbb c4bd da2f 563c d5b7 10be 8e39 103d
00000360: 3019 0b3e 47fb 1ebc 1abe 113e fff2 1abd
00000370: 4dca dbbd 1eec bf3d fc96 d6bd 9e2c d8bd
00000380: c1f2 acbd 927d 1e3e abbb f73a 2162 11be
00000390: 5523 f03d e8b7 243d 0cc6 ebbb 9f83 0e3e
000003a0: c039 083e 1d68 673d fbb9 003d 88db 49bd
000003b0: 9199 b6bd bcb5 bfbd 37be efbd 16c2 b53d
000003c0: a22d 023d 97a5 0abe 19ca f3bd 3c41 853c
000003d0: 96fa 7e3d 81dd e9bc 6ac0 d23d 84a1 a83d
000003e0: 4a1e a9bd 3d17 f03d 7a4c 5ebd e819 0bbe
000003f0: 69ef c63d 1178 003d e4c1 02be f90e 063e
0.134249 -0.09471871 -0.07962903 0.017881706 -0.04771657 -0.051143892 0.12254827 0.081544265
-0.07307736 0.07203459 -0.06920725 -0.08913771 0.00081853213 0.11974422 0.09519371 -0.119143665
-0.14590529 -0.09309589 -0.08816472 -0.14603974 -0.026755946 0.02894381 0.11025 0.113128744
-0.05755752 -0.051983085 0.0043987776 0.10652108 -0.07761399 0.0877145 -0.10192065 -0.06791164
0.056457352 -0.06256013 0.015145972 -0.13672297 0.12620804 0.14015855 -0.20267329 0.1395485
0.11633741 0.044820115 0.036533304 0.15421255 0.11830619 0.09920938 0.1415127 -0.03351764
0.14845826 -0.028993761 -0.12643467 -0.048113115 -0.10657268 -0.001340425 0.14111373 -0.10759275
0.10997292 -0.09666395 0.12299808 -0.044232454 -0.10567242 -0.110379785 -0.044955194 -0.13046701
0.12648249 -0.0041829976 -0.12001914 0.061016012 -0.107201226 -0.07379602 -0.0809588 -0.02394111
-0.03867984 -0.102633275 0.14051694 0.12272484 -0.034675226 0.106505714 -0.122576535 -0.1110799
-0.1240692 -0.014799963 0.06266911 -0.09018394 0.12301085 -0.1515605 -0.0933759 0.08204336
-0.09017803 -0.05697336 0.035137538 -0.11644111 0.07412435 0.097870104 -0.10579234 -0.08660291
-0.034207363 0.040779214 0.13006994 0.06267786 -0.07914962 -0.067762956 -0.036959864 -0.12682155
0.024615573 0.10158083 0.118256815 0.051092207 0.14785485 -0.0710498 0.027634108 -0.11889791
0.030841218 -0.001219282 0.04001565 -0.13452995 0.018581044 -0.118873 0.012401537 0.124916166
0.11527066 0.15011673 0.09904982 -0.03796965 0.14371365 0.15028287 -0.0810822 0.08451808
0.1491873 -0.08132924 0.024199668 0.10305559 0.052846834 0.13458458 0.14972739 0.040534593
0.0383565 -0.085973054 -0.113216236 0.00055110385 0.15229124 -0.032647017 0.12525497 0.07332512
0.05859991 -0.13052826 -0.058438096 0.1352635 -0.043682404 0.08999098 0.13436143 -0.11463646
0.11112141 -0.06530538 0.027989114 -0.14711262 0.15096532 -0.09981842 0.13681273 -0.010767004
-0.14793245 0.08323539 -0.06582253 -0.090155534 -0.13988805 -0.046841536 -0.14831063 -0.12856965
-0.021845309 0.044699658 -0.1483858 -0.10426514 0.14160736 -0.033606846 0.1378888 -0.13078493
0.12645361 -0.023446701 -0.020478148 -0.09578616 -0.13495502 -0.077039145 0.047786307 0.050184328
-0.10701715 0.09859774 -0.10278907 -0.015603996 -0.0849135 0.098566286 0.101641156 0.107413344
0.14463377 -0.12852864 -0.06993865 0.08066237 -0.0033912337 -0.048962142 0.13183735 0.036182407
-0.076951526 0.027975002 -0.022230977 0.14485702 -0.05670415 -0.121553145 0.14977546 0.06731634
0.03837529 0.11660176 0.13644435 0.12602949 -0.096059896 0.013072932 -0.14132626 0.03521114
0.13583827 -0.009703464 0.14232674 -0.037829395 -0.10731945 0.09371208 -0.10478017 -0.10555385
-0.08444739 0.15477589 0.0018900534 -0.1419759 0.11725489 0.04021445 -0.00719524 0.13917397
0.1330328 0.056495775 0.031427365 -0.049281627 -0.08916009 -0.09360835 -0.117062025 0.088749096
0.0317818 -0.1353973 -0.119037814 0.016266458 0.062250696 -0.028548004 0.10290606 0.08233932
-0.0825773 0.11723182 -0.054272152 -0.13584101 0.097136326 0.031364504 -0.12769276 0.13091649

fc_structured.0.bias f4 [128]
00000000: be68 dfbc 46a1 f73d 2102 09be 6fd5 e6bd
00000010: 6bdc ad3d bb3a fabd bcdd 72bc 2fc6 08be
00000020: d300 363d 7f14 5f3d 5bb1 e0bc e020 d8bd
00000030: 1586 0cbe 6faa a83d 9efc ef3d 5b2d e2bd
00000040: fda9 9dbd 6adf b6bd 1ba1 14be 90bb f43c
00000050: 6f35 253d c4f3 e13d 3d83 4cbd 1152 bdbc
00000060: 45cc 9c3c c4b4 82bd 60d8 023e 140d 973d
00000070: 0233 1abc 87b7 e93d 6dd8 f4bd 27e5 42bd
00000080: 8803 613d f390 a1bd 71c3 3cbd ebcd a7bc
00000090: 7ba7 ec3d 6b7e 29bb e452 01be 2104 003e
000000a0: 2bfd 013e 278e d3bd ddde d3bd d036 77bd
000000b0: eed7 ba3a b5c1 a23d 3e6d 0fbe 9a28 11be
000000c0: 3bde 5b3d bb22 603c d280 bf3c 7b30 0fbd
000000d0: 8ffa 273d 68aa 113d 3f51 f73c 1d40 bfbd
000000e0: d5de 98bc 8270 83bd 0e0a 4e3d 62df 0e3e
000000f0: 6a7d 943d 2bb4 9cbd 5770 bcbd 12ab 0fbe
00000100: a8e4 e63d 526f acbb 8896 46bd 44b9 adbd
00000110: 34bc f33d a4c4 30be 0fef 12be d3fc fdbd
00000120: e788 0a3e 6f6c da3d 3110 e9bc a90e 73bd
00000130: 60bf e83d 6f08 1a3e 823a 8639 5bec 06be
00000140: 8c63 ee3d 1356 9e3d d017 ec3d dcc1 fa3d
00000150: cc38 ffbd 2a5e 973d 46f8 a3bd 6421 143e
00000160: 31c7 f0bc 91aa 8bbd 5281 4e3d d382 cb3b
00000170: 059f 21bd 6228 113e 32ab 8e3d 0746 82bc
00000180: 885d 41bd f9a9 cebb 5fcc 09be 565b 763d
00000190: c60f 4e3d 99dd ca3d 44bf d33d 0fbb 60bd
000001a0: e71d 9b3d 2eb5 67bd 6fea d1bc d4ec 123e
000001b0: a184 023e fc88 a7bd 5c88 aabd 8775 4f3b
000001c0: 45b4 b43d 89c8 3f3c 0ce2 19be fb65 59bc
000001d0: 0688 983b ecc9 bcbd bf41 57bd 95a3 1dbd
000001e0: 95e3 063e 223c f3bd 3c67 0abd dd59 0e3d
000001f0: ec76 0c3e 6d7a 07be 206a 30bb 0500 7e3c
-0.027271625 0.12091307 -0.13379718 -0.11271178 0.08489307 -0.12218233 -0.014823373 -0.13356851
0.04443438 0.054462906 -0.02742832 -0.105531454 -0.13723023 0.08235633 0.11718105 -0.11043807
-0.07698438 -0.089293316 -0.14514582 0.029874593 0.04033416 0.11032823 -0.049929846 -0.023110421
0.019140372 -0.063821346 0.12777853 0.07375541 -0.009411575 0.11411958 -0.119553424 -0.047581818
0.05493501 -0.07888975 -0.046084825 -0.020483932 0.11555382 -0.0025862704 -0.12629277 0.12501575
0.12694232 -0.10329848 -0.10345242 -0.060355008 0.0014255026 0.07947103 -0.14006516 -0.14175645
0.053678732 0.013680155 0.023376856 -0.034958344 0.041010436 0.035562903 0.030190108 -0.093384005
-0.018660942 -0.064179435 0.050302558 0.13952401 0.07250483 -0.07651552 -0.092011146 -0.14030102
0.112740815 -0.005262294 -0.0484834 -0.08482602 0.11901131 -0.17262512 -0.14349006 -0.12401738
0.13528787 0.10665213 -0.028450103 -0.059340153 0.11364627 0.1504228 0.00025602063 -0.131761
0.11640081 0.07731261 0.115279794 0.12244007 -0.12462005 0.07391007 -0.08006339 0.14465863
-0.029391857 -0.06819642 0.0504163 0.006210664 -0.039458293 0.14175561 0.06966247 -0.015902532
-0.04720834 -0.0063068834 -0.13456868 0.0601457 0.05030801 0.09905548 0.103392154 -0.054865893
0.07574063 -0.05656927 -0.025624482 0.14348155 0.12745906 -0.081804246 -0.0832679 0.0031655745
0.08823446 0.011705526 -0.15027636 -0.013268943 0.004654887 -0.09218201 -0.052552935 -0.038486082
0.13172753 -0.11876704 -0.03378986 0.03475367 0.1371724 -0.13230295 -0.0026918724 0.015502934

fc_structured.2.weight f4 [64, 128]
00000000: 81c6 bc38 f511 41bd d6a3 773d bfca 733c
00000010: 0eb1 4c3d 5f66 a53c 2472 09bd d31a d7bc
00000020: e860 b33c 6a7f 80bd 85ab 803d 94ab 4f3d
00000030: f792 94bc e6c0 92bd cbd3 8c3d 52ed 2fbd
00000040: 43ac 733d df5a a8bd 5912 7fbd e2e7 013d
00000050: 3019 5bbd e59d 113d 4d39 8cbd 88d0 a4bb
00000060: 6643 99bd f8f5 82bd 70e7 9abd 84c2 a43d
00000070: 0fdf 3b3c 6daa d8bb 9a52 b1bd 4a18 6bbd
00000080: c0c2 46bd 93d8 b5bc c75d 2dbc 41c4 abbc
00000090: 1385 303d 0f86 683c 2050 48bd e7a2 303d
000000a0: 19e9 75bd ef74 a5bb 9c52 893c d1ed 993d
000000b0: 68d4 7f3d faa6 f23c 9b5a 88bd 7f4f 00bc
000000c0: 3c84 933d dd1e 913d 0acb f63c 05f2 853d
000000d0: f0e8 a6bd 3d51 373d 3305 3ebd 69d1 cb39
000000e0: 0291 ab3c 0a51 5bbd 5ea9 60bd 0a41 60bd
000000f0: 10e3 193d cdd4 6f3c cee1 29bd 2845 67bd
00000100: 1121 48bb d9ab 05bd e9a8 70bd bc51 98bc
00000110: 1496 dc3c ccf2 f5bc 4442 a53d 80b6 463d
00000120: 5341 b33d 9ba1 05bc 4620 d43c 41c8 9b3d
00000130: c953 693b cb85 8cbc e960 abbd efc5 313d
00000140: 7090 633d 1e34 ae3d 2730 fcbc 0b69 a13c
00000150: fa7f 50bd 99d8 873d 3b0d 793d 7efe 3dbd
00000160: 5097 5cbc 8fae b0bd db13 283d df3d 6e3d
00000170: b688 773d fdb1 86bd cadc ba3c 0357 08bc
00000180: ff0b 92bd 5c59 74bd 852d 8b3c e721 0ebd
00000190: a62a 19bd b411 0abc 4947 953d 1788 c3b9
000001a0: 5c51 573c 7c36 d43c a562 583d 7c53 0d3d
000001b0: 55ae 3c3d 9dd6 013c 4390 3f3d f109 20bb
000001c0: a4a3 f63c 13f0 3fbd 5b4e adbc fde9 9abd
000001d0: 3d6f f83c 6df4 b73b f5b1 b3bd 1c48 0c3d
000001e0: 4108 a2bd 1feb 9cbd b293 2b3d 9895 253d
000001f0: 6620 8a3d a854 023c d870 4bbd 955d 4e3d
00000200: fab2 cc3b d55b 3a3c a5c3 9c3c a39b 16bd
00000210: 70f2 b23d 8122 6e3a 77e0 b0bc 1514 853d
00000220: 644b 903d ecee 183d 0ae6 18bd 6995 17bd
00000230: bef0 8cbc 6d0c 68bd d7ae 813d b92e b3bc
00000240: 8d35 833d faaa 3b3d cd2d cbbb 353f cc3c
00000250: 819d a2bd ea1a 5bbd 9f67 27ba 00af 43bd
00000260: e9c3 b0bd 344b cdbc 55a6 cdbc 591a 2b3c
00000270: 2621 d23c 6393 6cbd cea5 a5bd 8e55 253d
00000280: 8d27 d3bc 4e10 4f3c dcc6 c4bc b6a6 3bba
00000290: f1fb 223d ab9b a5bd 697b 333d cc53 debc
000002a0: 72b7 80bd f998 81bd a97d 8cbd c87d a4bd
000002b0: 8871 913d d879 82bd 0eeb 073d 8c9f e6bc
000002c0: ebc6 7abd c3c3 6d3d 5c8a f23c 02c7 8d3d
000002d0: 6385 813d 610b 073c f945 95bd 8648 9fbd
000002e0: 7a66 fe3b 3160 6bbd 3a8c 0b3c 85d4 953d
000002f0: 9af5 34bd d663 983d 86ea 273d e1de 6ebd
00000300: d1c6 c8bc c2e2 42bd c887 473d 2916 7fbd
00000310: 9721 6fbb 6ed6 8bbd e99e 4a3d 2ed1 6ebd
00000320: b15b 9a3c 5499 1c3d 655f 243c 7f2e 45bc
00000330: 3e05 913d f998 9dbc 30db 73bd ef47 03bd
00000340: 41d8 95bc bcf1 edbc c085 ac3d 9a51 f9bc
00000350: 6b39 053d 5642 0d3d ef16 163d a8ef c33c
00000360: ea36 6b3b fa49 a83d 09f6 4bbd a13a c53c
00000370: da86 6d3c 68f0 04bd be3a aebd 2dc9 473d
00000380: 8644 00bd e97f ae3b 7cfe 15bd 93c8 b53c
00000390: 877c 8b3d b80e 8f3c dac4 9d3d aa36 a13c
000003a0: e177 c13b 36b7 323d 06c2 743d a6bd a23d
000003b0: 204d a6bd d473 c73a 8cb7 dd3b b3a8 89bc
000003c0: 778d b23d 09dd 46bb bd44 9cbd d711 2f3c
000003d0: f10a 193d b82b 92bd 3422 68bd 9c87 a43d
000003e0: bfbd 70bd 3ef0 883d 256b 7bbd de79 2c3d
000003f0: aabc 9c3c 31a2 243d 8629 d63c 5b41 173d
9.001513e-05 -0.047136266 0.06045898 0.014879881 0.04997354 0.020190416 -0.03355612 -0.026257908
0.021896794 -0.06274302 0.06282715 0.05070074 -0.018136485 -0.07165699 0.06876334 -0.042950936
0.059490453 -0.08220457 -0.062273357 0.03171528 -0.053490818 0.03555097 -0.06846867 -0.0050297417
-0.07483558 -0.06394571 -0.075636744 0.080449134 0.0114667555 -0.006612113 -0.08658333 -0.05739621
-0.04852557 -0.022197997 -0.01058144 -0.020967605 0.04309566 0.014192118 -0.04890454 0.043124106
-0.060036752 -0.00504934 0.016763024 0.07516063 0.062458426 0.029620636 -0.066579066 -0.007831453
0.07202956 0.07085965 0.030126113 0.06540302 -0.08149898 0.04475521 -0.046391677 0.000388752
0.020943169 -0.05354408 -0.05484902 -0.054749526 0.03757006 0.014638138 -0.04147511 -0.056462437
-0.0030537287 -0.03263459 -0.058754835 -0.018593661 0.026927032 -0.030023001 0.0806928 0.04851389
0.08752694 -0.0081562055 0.025894295 0.07606555 0.0035602918 -0.017153641 -0.083680935 0.043401655
0.05555767 0.08506034 -0.03078468 0.019703409 -0.050903298 0.066331096 0.060803633 -0.04638528
-0.01346381 -0.086270444 0.04103456 0.058164474 0.060433112 -0.06576917 0.022810359 -0.008321526
-0.07131194 -0.059655532 0.016989479 -0.0347003 -0.03739419 -0.008427072 0.07288987 -0.00037294693
0.013141956 0.025904886 0.05282845 0.034503445 0.046064693 0.007924703 0.046768438 -0.0024419988
0.030107327 -0.046859812 -0.021155527 -0.07564161 0.03032648 0.0056138546 -0.08774177 0.034248456
-0.079117306 -0.07662033 0.0418889 0.040425867 0.06744461 0.007954754 -0.049668163 0.050382216
0.0062469216 0.0113744335 0.01913626 -0.03676952 0.087376475 0.0009084121 -0.021591408 0.06497971
0.070456296 0.03733723 -0.037328757 -0.037007723 -0.017204639 -0.056652475 0.06332176 -0.021872865
0.064066984 0.045817353 -0.0062005282 0.024932483 -0.07940198 -0.053492464 -0.0006385985 -0.047774315
-0.08631117 -0.025060274 -0.025103727 0.0104432935 0.025650572 -0.057757746 -0.08088265 0.040364794
-0.025775695 0.012638165 -0.024020605 -0.0007158326 0.03979105 -0.08086332 0.043818865 -0.027139567
-0.062849894 -0.06328005 -0.06859905 -0.08031803 0.071017325 -0.06370896 0.03318315 -0.02815225
-0.06122486 0.05804802 0.02960699 0.06922723 0.063242696 0.008242459 -0.07288737 -0.077775046
0.007763681 -0.057464782 0.008517319 0.073159255 -0.044179536 0.07440917 0.040995143 -0.058318023
-0.024508866 -0.047579534 0.048713475 -0.062276993 -0.0036488527 -0.068280086 0.049467955 -0.058304958
0.01884255 0.038232163 0.010032509 -0.012035011 0.07081078 -0.019237982 -0.059535205 -0.032051023
-0.018291594 -0.029045932 0.08423948 -0.030434418 0.03252546 0.03448709 0.036642965 0.023917988
0.0035890886 0.08217235 -0.049795184 0.024075808 0.014497483 -0.03245583 -0.08507298 0.04877584
-0.03131535 0.0053253067 -0.03661965 0.022190368 0.06810861 0.017463073 0.07703562 0.019679386
0.0059041833 0.043631755 0.059755348 0.07946329 -0.08120179 0.0015217015 0.0067662653 -0.016804075
0.087183885 -0.003034415 -0.07630298 0.010685406 0.03736395 -0.07137245 -0.056673244 0.08033678
-0.058774706 0.066864476 -0.061381478 0.04210841 0.01913293 0.04019374 0.026142847 0.036927562

fc_structured.2.bias f4 [64]
00000000: f090 ac3b a797 1e3d 2515 323d 1a15 fbbb
00000010: ff8a 8ebc 6b4f d63c c95a c83c 6901 4fbd
00000020: 557d f03c 7960 91bc e3d3 c23c f0d4 9fbd
00000030: d206 c0bd d3ac a73a da4d 0c3d 3271 3bbd
00000040: 3230 8bbd 85fd 2e3c 3c0a 6e3d 385a 083d
00000050: 9700 b2bd 9a38 e1bd 616b 213d e04f b4bd
00000060: 3f26 c3bd d3c7 a33d be5b 7f3c 25d6 3bbd
00000070: 9453 e8bb c8cb 9abd 1cd6 8a3c 3188 233d
00000080: 2143 843d 8729 453d fd17 cc3c a1f2 41bd
00000090: 0e72 98bd 6562 343c 1e88 573d dc94 923d
000000a0: 64d7 a13d 324a fc3c 0a1a 6e3d 279c 8cbd
000000b0: e597 ac3c 2d55 febc 1cba 683d 7eec 69bd
000000c0: b28f 33bd 9547 d53c 6c5b 863c 0a14 1cbc
000000d0: 2b62 fa3c 38b6 363d a35e b6bc f31f 52bc
000000e0: 12e0 ba3c 376e 2c3c 09b1 4bbd 701b 27bd
000000f0: 3ad1 90bd 08b2 a93d 9064 0f3d 77ad cf3b
0.0052663013 0.038718846 0.043477196 -0.0076624276 -0.017400263 0.026160916 0.024457352 -0.050538454
0.029356638 -0.017746197 0.023782676 -0.078042865 -0.09376301 0.0012792594 0.034253933 -0.04576225
-0.06796302 0.010680561 0.05811523 0.033289164 -0.08691519 -0.10997124 0.039409045 -0.088042974
-0.09528779 0.07997098 0.015585838 -0.04585852 -0.0070900414 -0.075583994 0.016947798 0.039924804
0.06458116 0.048135307 0.024913782 -0.04735053 -0.07443629 0.011009787 0.052620046 0.07157299
0.079024106 0.030797098 0.0581303 -0.06865721 0.021068523 -0.031046474 0.056818113 -0.057110302
-0.04383821 0.02603511 0.016401015 -0.009526262 0.030564388 0.04460737 -0.022261923 -0.012825
0.022811923 0.010524324 -0.04972938 -0.04079765 -0.07071157 0.0828591 0.035008013 0.0063378173

fc_combined.0.weight f4 [128, 352]
00000000: 1970 973b 6420 ffbc 4495 753b 5b09 363c
00000010: 28c0 c3bc 2f6e c4bc 0758 40bd 0d7b ac3c
00000020: 4137 df3c a1d5 7fbc 80fa bcbc 978e 3d3c
00000030: a4cb 4c3c 278d 4abc a9b8 6dbc 5de7 b73c
00000040: 7d91 cbbc 85e5 68bd 27ac 543c b2a3 61bc
00000050: 71a4 c9bc 488e a4bc b37c 613d 5018 8f3d
00000060: 97c3 f7bc d2fc d3bc 6901 053d 3556 273c
00000070: 59fc 6cbb 7daf d63c 18b2 06bc 45c4 e13c
00000080: e252 d0bc 43fb c73c b0fe dfbc 4c9b 2cbd
00000090: f7d7 bcbc 9e6a 12bd cfe1 a1bc c6ba 84bc
000000a0: 40f4 0d3d 2517 3abd da2f 433d 725f 4bbd
000000b0: 1765 4fbc 905d 38bc ec29 d9b9 57bf 153d
000000c0: 43e7 18bd 6945 213d dcb6 a93c 370a 05bb
000000d0: 3aa2 fcbc 861c 653c 4023 27bd 660b d53c
000000e0: b878 223c 5559 0f3d 0604 9c3c 0bb4 3cbd
000000f0: ec89 38bd 3186 4b3d e3df c3bc d133 68bd
00000100: 7658 1f3d d5bc 2ebd 3778 23bd 47f5 723c
00000110: 5da7 a93c 90c0 023d 0a10 fd3c 5abd 1bbd
00000120: 0bea 13bd 3e9f 483c 330a 4b3d 77fb 01bd
00000130: 6645 03bc f65d 42bd a9b7 1cbd 40f5 2ebd
00000140: 2c99 07bd 2ca6 1fbd 8095 ed3b 6274 1dbc
00000150: d75e a83c 745f 73bb 8c7d 2cbd 33f6 553d
00000160: c09b 4c3d 7fcb 01bd 5b50 88bc 811a 03bc
00000170: b206 923c 0dd1 ca3b c523 233d 834c debc
00000180: 3023 9e3c 454c e33c f1dd 26bd f7fb 30bd
00000190: b180 763c 2298 d23c 6ea4 fe3c db22 fcbc
000001a0: fdb1 c33c 0942 3fbd 6b3e 2ebd 4956 ab3c
000001b0: ed47 693d 713f 1ebc 2439 a13c 65c5 d53c
000001c0: d852 9fbb 496c 843c ffad b3bb 4078 033d
000001d0: 6d10 0ebd a300 4d3d e04e 4cbd 4ef8 e83b
000001e0: 64ec e2bb e002 323c 3a61 c23c c99e 5c3a
000001f0: 62fd a83c bb13 12bd 0f99 423d c22f c2bb
00000200: 38fd 8aba 7339 b33c dcd4 123d e944 46bc
00000210: 6a1e 963c d0ec 25bc 48ba 0e3c 22dd e5b8
00000220: 1007 373e 8683 563d 22f5 5cbd efd7 fa3d
00000230: 3859 803d c663 14bd ef91 203e 2fbe 593d
00000240: 6f42 13bd 4334 26bd e054 16bd 1fa7 473c
00000250: fd8d 01bd 3693 92bb 562d f53b a1fd dd3c
00000260: e094 473d 00ad b73b 98ec a1bd 64bb 11bd
00000270: e644 c5bc 4c00 59bd b9f6 2abd b99d f7bc
00000280: 7ef8 c63c 552c 56bd 0044 2ebd 55e4 26bd
00000290: 6c10 39bc d465 383d f6ec 363b 6ce2 623d
000002a0: f85b 61bd 10a1 bbbc 1cbf 8f3c 863c 963c
000002b0: 9eca 35bc 9601 c43b afd8 0b3d b458 683c
000002c0: 64ac c0ba fdfe 093b 7fef 4a3d 3f29 2c3d
000002d0: fc28 ca3b c511 dabc 73b8 363d e364 a23c
000002e0: 98a7 373c 2b26 1dbd ecea 413c 1dd1 cfbc
000002f0: 0082 453d a2f2 48bc 1464 053d 662f d53b
00000300: 3c59 0d3d 73e6 2e3d 6ce4 33bd 4ea9 52bd
00000310: 7f1f d13a 4cdf 00bd da24 5f3b fd2f c0bc
00000320: c2d5 2f3c 0ba3 043b 32eb c7bc d43d 563d
00000330: e20d fdbc 1aa9 31bd a974 2c3d 4e67 c6b9
00000340: 2998 9bbc e3a9 4a3d b77a 473d 389a a53b
00000350: 43b1 22bd 9610 2dbd 7c68 21bc cf3b 37bd
00000360: d494 a8bb 40f3 20bc 4135 813d f8f9 33bd
00000370: 1f6d b53c e8e0 14bd 571a af3c 8621 383c
00000380: dd0f 233d 76e2 453d acf5 04bc d70c 4f3c
00000390: 3a5a f3bc 3f8e 0fbc 9645 ec3b 7c7a e23c
000003a0: 10a5 49bd d31f f83c 7e9c 55bc 28e1 c23c
000003b0: 11ce 3abc 4cc8 973c 9154 b4bc 3e13 413d
000003c0: 8a44 10bd 4133 273d 7441 8e3c e29d 96bc
000003d0: 500c 293d acae d03a 55dc 853c 285b 323d
000003e0: 4b0c 433d 0664 10bd c1b4 063b 763e 45bd
000003f0: 4ed4 ef3c 82c8 283c a468 82bc 21da f9bc
0.0046215174 -0.031143375 0.0037473002 0.011110629 -0.023895338 -0.02397832 -0.04695895 0.021054769
0.027248027 -0.015614898 -0.023068666 0.011569641 0.012499724 -0.012362755 -0.014509358 0.02244919
-0.024849648 -0.056859512 0.012980497 -0.013771938 -0.024614545 -0.020087376 0.055050563 0.06987059
-0.030244632 -0.02587739 0.032472048 0.010213424 -0.0036161153 0.026206726 -0.008221172 0.027559409
-0.025430147 0.024411803 -0.027343124 -0.04214029 -0.023052199 -0.03574621 -0.019760994 -0.016202342
0.034656763 -0.04543223 0.047653057 -0.04965157 -0.012658379 -0.011252776 -0.000414207 0.03655943
-0.037329923 0.039372835 0.020717077 -0.0020300278 -0.030839074 0.013983851 -0.0408051 0.026006412
0.009916477 0.034997303 0.019044887 -0.04607014 -0.045053408 0.04968852 -0.023910468 -0.05669004
0.038902722 -0.042660553 -0.039909568 0.0148289865 0.020709688 0.031921923 0.030891437 -0.038022377
-0.036111873 0.012244998 0.049570274 -0.031733956 -0.008012151 -0.04745289 -0.03826109 -0.042714357
-0.03310506 -0.038976833 0.007250488 -0.009610267 0.020553036 -0.0037135752 -0.04211192 0.052236747
0.049953222 -0.03168821 -0.016639879 -0.0080019245 0.017825458 0.0061894716 0.039829034 -0.027136093
0.019303888 0.02774633 -0.040739004 -0.043209042 0.015045331 0.025707308 0.031084266 -0.03077834
0.023888582 -0.046693835 -0.042539995 0.020915167 0.05695336 -0.00965868 0.019680567 0.026095102
-0.0048621707 0.016164916 -0.0054833884 0.0320971 -0.034683634 0.050049435 -0.04987991 0.0071096784
-0.0069251526 0.010864943 0.023728002 0.0008415995 0.020628635 -0.035663348 0.04750925 -0.0059261033
-0.001060403 0.02187798 0.03584753 -0.01210139 0.01832505 -0.010127261 0.008711405 -0.0001096076
0.17873788 0.052371524 -0.053944714 0.12248217 0.06267017 -0.036227964 0.15680669 0.05315989
-0.035952028 -0.040577184 -0.036702037 0.012185841 -0.03162955 -0.0044731153 0.007482211 0.027098479
0.048725963 0.00560534 -0.07906455 -0.0355791 -0.024080705 -0.0529788 -0.0417392 -0.030226575
0.024288412 -0.052288372 -0.04254532 -0.0407451 -0.011295419 0.045018986 0.0027912236 0.055391714
-0.05501935 -0.022903949 0.017547183 0.018339407 -0.011095671 0.0059816344 0.034142192 0.014181305
-0.0014699814 0.0021056526 0.049544808 0.042031523 0.0061694365 -0.026619801 0.0446095 0.019823497
0.011209391 -0.038366478 0.011835795 -0.025368268 0.04821968 -0.012264879 0.032566145 0.0065058945
0.03450893 0.042700242 -0.043919012 -0.051430993 0.0015954821 -0.031462952 0.0034049065 -0.023460383
0.010732116 0.0020238783 -0.024404142 0.052305058 -0.030890409 -0.04337416 0.042103443 -0.0003784247
-0.018993454 0.049478423 0.048701014 0.0050537847 -0.03971983 -0.042252146 -0.009851571 -0.044734772
-0.005144695 -0.00982362 0.063089855 -0.04393956 0.02214676 -0.0363473 0.021374865 0.011238461
0.03981005 0.048311673 -0.008115213 0.012637339 -0.02970611 -0.008761941 0.0072104437 0.027646296
-0.04922968 0.030288612 -0.013037799 0.023789003 -0.011401669 0.018528126 -0.02201298 0.04713749
-0.035221614 0.040820364 0.017365195 -0.018385831 0.041271508 0.0015921197 0.016340414 0.043543965
0.047619145 -0.03525164 0.0020554515 -0.04815527 0.02927604 0.010301711 -0.015919037 -0.03049952

fc_combined.0.bias f4 [128]
00000000: 1e6b 2b3d 7cae e43c 6912 11bd 594b 82bd
00000010: c8ea 183c 9208 bebb 8d93 aebc 55f5 1ebd
00000020: d8e2 4dbd f7e7 ba3b c07e 27bd 5989 c9bd
00000030: 5bd3 193b 7ff4 9cbc 3908 bcbd 01e4 bfbc
00000040: cd80 ee3a d7e2 893d dca9 4abd ae85 083b
00000050: 7614 0a3d 856a 5bbd e74c 4bbd 48c7 49bd
00000060: be46 07bd 9777 32ba be5f 4ebd 2008 a5bc
00000070: 9480 0ebc 7e6a 2cbd 46ba 243d 45e2 f1bb
00000080: f22c 4f3c 48c2 44ba 84dc 0d3d cecf b13c
00000090: 91b4 3fbd 8bae 9cbd abee 6cbd d529 7ebd
000000a0: e32d aebc e033 27bd cf69 073d 8930 c23c
000000b0: 21f2 05bd 9cdf 18bb 30e6 24bd b665 cdbb
000000c0: 6094 79bd 1314 a0bd a884 88bd a7ff 9bbd
000000d0: 9993 6b3a 5e10 413d df6f 013c 3d31 ee3c
000000e0: fe04 763c 17cb f9bc 37a0 5abd aea1 033d
000000f0: 9700 573b 7ea0 bbbd 3ecd 62bd d51b 9d3c
00000100: 1634 2cbc 9a75 7ebd 483f 09bd 3208 913c
00000110: 3ca7 cc3a ee0b 593c 4e3b f83b 9aa9 8bbd
00000120: 9049 98bc 9f7e 693c 3347 81bd 54b9 4cbc
00000130: ad13 49bd 5366 8cbc 3547 97bc 9ea0 16bd
00000140: 9f32 0fbd 6819 0cbc 6bd1 67bd 565e 913c
00000150: 1788 5b3c 241e 90bd 911e 4cbc 2495 77bd
00000160: 7702 c53c 6d5f 613c 9613 03bd 5b97 033d
00000170: 7e3e d93b 0c98 0cbd 80d4 e739 7f54 96bd
00000180: 8d17 143d ec6a ca3b 1029 4bbd 19c8 3538
00000190: a15f 92bd be19 8abd 85d0 b43c 52d6 24bd
000001a0: a9e1 ddbc a4e6 953c 7fb7 0bbd 4695 12bd
000001b0: fcf7 73bd 98cb 92bc a000 b0bc 530c 323d
000001c0: dc71 bdbc fe6a 263d 3070 57bd 0e79 3fbd
000001d0: 860a 633a 9b63 be3c c3e1 0a3d fa2f 46bc
000001e0: 4289 67bd 4fa6 c0bc 2acd 943c 0d1c 2e3c
000001f0: f540 99bc 5866 ad3c ba65 19bd 398d 73bb
0.0418502 0.027915232 -0.035417948 -0.06362028 0.00933332 -0.0057993615 -0.021310592 -0.038808186
-0.050265163 0.005703922 -0.040892363 -0.0984065 0.0023471925 -0.019159554 -0.09181256 -0.02342415
0.0018196345 0.067327194 -0.049478397 0.0020831632 0.03371092 -0.05356838 -0.049633887 -0.049262315
-0.03302645 -0.00068079814 -0.050384276 -0.020145476 -0.008697648 -0.042093746 0.040216707 -0.0073817098
0.012644993 -0.0007505757 0.03463413 0.021705534 -0.04680306 -0.07650479 -0.0578448 -0.062051613
-0.021262115 -0.040820956 0.03305989 0.023704784 -0.032701615 -0.002332664 -0.040258586 -0.0062682284
-0.060932517 -0.07816329 -0.06665927 -0.07617121 0.00089865323 0.04713475 0.007900207 0.029076213
0.015015839 -0.030492349 -0.05337545 0.03213661 0.0032806748 -0.09161471 -0.055371515 0.01917831
-0.010510465 -0.062123872 -0.033507615 0.017704103 0.0015613805 0.013247473 0.007575429 -0.06819458
-0.018589765 0.01425138 -0.06312408 -0.012495358 -0.04909103 -0.017138636 -0.018466571 -0.03677427
-0.034960385 -0.008550979 -0.0565962 0.017745178 0.013399146 -0.07036999 -0.0124584595 -0.060444966
0.024049027 0.013755661 -0.0320011 0.032126766 0.006629764 -0.03432469 0.00044218078 -0.07340335
0.036155272 0.006177297 -0.049599707 4.334012e-05 -0.07147146 -0.06743191 0.022072086 -0.040243454
-0.027085142 0.018298455 -0.034110542 -0.03578689 -0.05956267 -0.017919347 -0.021484673 0.043468785
-0.023125581 0.04062938 -0.052597225 -0.046746306 0.0008660931 0.023240855 0.03390671 -0.012096399
-0.056527384 -0.023516802 0.018164236 0.010626805 -0.018707732 0.021166965 -0.03745053 -0.0037163033

fc_combined.2.weight f4 [64, 128]
00000000: 52c4 4c3d d54b 8d3c c732 b0bd 846b 52bd
00000010: 0df8 9d3c 9092 83bd e222 523d cda0 313d
00000020: 2a4a 383b 90fe 8b3d 990f b2bd fddf e1bc
00000030: e5a0 babd 5822 843d cbe3 5abd 93ca 993d
00000040: 0b1d 6a3c 3ed3 0839 c0bc 9abd 7a73 ba3a
00000050: cc11 2a3a 5ffd 8dbd 0aa4 debc 65ed 3cbd
00000060: 3a0a 75bd 2e9f b2bc 60f6 1ebb 5313 e53c
00000070: 5347 d83b 871f b0bd 94e2 593c be70 6fbc
00000080: 59cc 8d3c 21a2 47bd 5c79 353d a9c8 e03c
00000090: 9f09 2d3d d31c b3bd 6f8b 9b3d 1f6b fabd
000000a0: 2e18 083d 9889 0cbc 174d 483c b21f 77bc
000000b0: 41f6 ac3d ba93 553d 9744 2ebd 8320 75bd
000000c0: 9729 933c 4e09 83bd eac1 a23b 5240 7dbc
000000d0: fece 4e3d 7fe9 5a3c b445 09be da9a 73bd
000000e0: 3fad 363d bf24 42bd 533a 86bb 5af8 5fbc
000000f0: 11de 4ebd 6a61 c83a 8ddb dcba e827 0bbc
00000100: 750d cc3c 29fb a6bd 9872 cfbd 2515 c1bd
00000110: addb 97bd f437 7cbc dffe 0fbd b6db 8e3c
00000120: 0b44 273c 3b04 7f3b 3246 21bd a969 5a3d
00000130: 017f a13c 9277 d4bd b449 1f3d db50 a03b
00000140: 6456 303d 3e35 313d d5f5 463d 5cc0 7ebd
00000150: 1d4a 20bb 7f2e c5bb c53a e9bc 3d35 f5bd
00000160: b07b dd3c 956f d4bc 0d9b 7dbd 4317 bdbd
00000170: 3e05 6ebc 874c f3bd 59af 12bc 360c 5a3d
00000180: e4e1 a6bd 5638 ae3d 6ef5 443d 4520 973d
00000190: e4cc abbd 02a9 ffbb e741 40bd c38e 2a3d
000001a0: 281c 103d 6621 f4b9 b2f6 60b9 56fa 813d
000001b0: 76d3 fe3c 6792 663d fb55 90bb 2e4a 06bd
000001c0: 7b29 5abd 51a7 083c a381 c1bd 2ba2 4cbd
000001d0: 8357 573d 6207 f7bb 2191 003c 9762 f7bc
000001e0: c0d8 b33d 1a5a a63c cb63 063c 7ce4 373d
000001f0: f60d 83bd 8b9c abb9 98ea 9f3d 8b91 a8bc
00000200: 4e20 a93b 821d 1cbd 8902 613d 23fd cdbc
00000210: d7ff 523d 8c96 3dbc 13d0 273d a32e 16bc
00000220: 319a fdbc 2b88 6d3b 35eb 183d 64c0 a33c
00000230: 1e32 8bbd f909 a2bd 4c92 943d 37d9 8f3c
00000240: 1443 a2bd db27 9ebd 5451 93bc 2a94 a3bd
00000250: 251f 9ebc 0358 7c3d cd2b 8e3d 9056 953d
00000260: 2e8f 823d 733b 44bd 9977 ac3c fe61 173d
00000270: 66f9 84bd 12bd 883d e80a 94bc 2456 883d
00000280: a28d 51bd 9eb6 7a3d ab09 0f3d 5b85 d1bd
00000290: 1e4a 683d 950d ee3d fcb9 67bd e254 a7bd
000002a0: ded1 a53c 8600 bc3d 55e7 53bd 914a 57bd
000002b0: bbec 3ebd acdb 763d 64da b53d e143 983b
000002c0: 46a4 603d 2917 88bd 1699 48bd fb04 adbd
000002d0: 73ab d93c ca83 6dbc c7f3 acbc b253 1bbd
000002e0: 475e 923d 18e4 acbc 7050 5e3d 1895 7d3a
000002f0: 9c3e a4bb c37c 91bc 2519 213d aaa6 673d
00000300: 447e 813c c2aa a5bd e2ea 733a 2073 84bc
00000310: f433 6d3d bac2 8bbb f919 85bb 507a febc
00000320: ada0 883d d7c2 813c 84a0 dcb9 799b 8f3d
00000330: 8f37 3ebd cbba 663c 4784 fa3c b9f9 1a3d
00000340: 2097 11bc b1a7 d43a c72e a83d 4aa5 bc3d
00000350: 69e5 1b3d 3f3d 48bd 2d4b b8bc 1d97 083d
00000360: 3d23 8f3d 6c9c 033d 824d 11bd 1692 593d
00000370: d751 023d d64c 3b3d a3f4 bebc 93df dd3d
00000380: c800 193d 6aff 8abd 7fbc 6cbd 0138 2dbd
00000390: dbd6 b03d a3e4 943d 1820 983d efd9 cd3c
000003a0: 7dff c1bd 991a b73d f8ac 753d 2098 40bd
000003b0: 0ed0 9fbc 52d2 793d edd9 d7bc 143f 913d
000003c0: 4698 b33d 1815 afbd 982f 833d 7c7f 6abd
000003d0: c898 0c3d fe0f b5bd 6bdf 7b3d 8983 89bb
000003e0: cab4 ba3c 624c a43c c101 a63d 416f cd3b
000003f0: dd19 c93c 00de 833c 33c2 663c 900f ac3d
0.049991913 0.017248074 -0.08603435 -0.051372066 0.019283319 -0.06424439 0.051302798 0.043366242
0.0028120377 0.06835663 -0.08694381 -0.027572626 -0.091127194 0.06451863 -0.053439897 0.07509341
0.014289151 0.00013048665 -0.075555325 0.0014225089 0.00064876373 -0.06933092 -0.02717783 -0.046124835
-0.059824206 -0.021804418 -0.0024255738 0.027963316 0.0066002994 -0.08599763 0.013298649 -0.014614282
0.017309355 -0.048738603 0.04430519 0.027439432 0.042245504 -0.08745732 0.07594954 -0.12227463
0.033226185 -0.008577727 0.012225411 -0.01508324 0.08445407 0.052142836 -0.04254588 -0.05984546
0.017964168 -0.06398259 0.004966964 -0.01545723 0.050490372 0.013361334 -0.13405496 -0.05947385
0.044598814 -0.047398325 -0.0040963083 -0.0136700515 -0.050504748 0.0015287821 -0.0016850099 -0.008493401
0.02490876 -0.08153374 -0.10129279 -0.09427861 -0.07414947 -0.0153942 -0.035155173 0.01743875
0.010209094 0.0038912434 -0.039373584 0.05332342 0.01971388 -0.10374369 0.03888865 0.004892451
0.04305114 0.043263666 0.048574287 -0.062195167 -0.0024458237 -0.0060175057 -0.028470406 -0.11973045
0.027036518 -0.025932113 -0.061915446 -0.092329524 -0.014527617 -0.11879831 -0.008952939 0.0532343
-0.08148554 0.08506839 0.048085622 0.07379202 -0.08388689 -0.0078021297 -0.04693785 0.041640054
0.035183102 -0.0004656419 -0.00021454206 0.06346576 0.031106692 0.056291964 -0.004404781 -0.032785587
-0.053262215 0.008340673 -0.09448554 -0.049959343 0.052573692 -0.007538722 0.007847101 -0.030198378
0.08781576 0.020306636 0.008202503 0.044895634 -0.06399147 -0.00032732295 0.07808417 -0.020577213
0.0051613217 -0.03811408 0.05493406 -0.025145119 0.05151352 -0.011571538 0.04096992 -0.0091663925
-0.030957313 0.0036244493 0.037333686 0.0199892 -0.067966685 -0.079120584 0.072544664 0.01755963
-0.079229504 -0.077224456 -0.017983116 -0.079872444 -0.01930196 0.061607372 0.06941948 0.07291901
0.063749656 -0.047908258 0.021053122 0.036958687 -0.064928815 0.06676687 -0.018071607 0.06657055
-0.051160462 0.061209314 0.03492133 -0.10230514 0.05671131 0.11623684 -0.056573853 -0.08170487
0.020241674 0.09179787 -0.051734287 -0.052561346 -0.046612483 0.06026809 0.08879545 0.0046467637
0.054844163 -0.066450424 -0.04897412 -0.084482156 0.026571011 -0.014496753 -0.021112336 -0.037921615
0.07146888 -0.021104857 0.05427593 0.0009673401 -0.0050123464 -0.017759686 0.03933062 0.056555428
0.015807278 -0.0808921 0.00093047146 -0.016168177 0.057910874 -0.0042651566 -0.004061934 -0.031064183
0.066712715 0.015839977 -0.00042081263 0.07012076 -0.046439704 0.014082621 0.030580653 0.03783581
-0.008886129 0.0016224292 0.08212047 0.09211214 0.03806058 -0.048886534 -0.022496784 0.033347238
0.06989143 0.032131597 -0.035474308 0.053117834 0.03181633 0.045727573 -0.023310011 0.10833659
0.03735426 -0.067869976 -0.05779695 -0.042289738 0.086347304 0.072701715 0.074279964 0.025128333
-0.09472559 0.0894062 0.05997941 -0.047020078 -0.019508388 0.060991593 -0.026349032 0.07092109
0.08769278 -0.08548945 0.06405562 -0.057250485 0.03432539 -0.08840941 0.061492365 -0.0041965884
0.022791285 0.020055953 0.08105803 0.006269366 0.024548465 0.016097069 0.014084387 0.08401406

fc_combined.2.bias f4 [64]
00000000: 75ad cbbd bdfc 9b3d ca24 d33c 9044 17bd
00000010: ba54 dbbc a166 b4bd e1c3 9dbc 03c5 983d
00000020: b55e 5c3d 60de 30bd a19d c73c fb46 4f3d
00000030: a5a3 923d eaaf 92bc 8431 e2bb 69a4 573d
00000040: 9e4b fb3b fc96 32bd cfe5 8e3b 43d1 643d
00000050: f099 1e3d 13d5 a93c 925f 77bd 28dd 7ebd
00000060: de70 643c c8e5 a53d 3a5c 1abd 8f20 24bd
00000070: 3e08 a83c 7d08 dc3c 5fa8 b0bd a46d 8c3c
00000080: 8471 903d 8871 a8bb 988c 2dbd cf0a eebd
00000090: 30ff f73c 21c1 b53d e119 8bbd 4c2a 42bd
000000a0: b666 e53c 38a2 bfbd 55c0 db3c a446 263d
000000b0: 2ba0 7abd 2edc 3bbd 85f0 a03d 31b6 b13d
000000c0: ed3b 16bd e2c4 423d d1ef ccbd 7aa7 07bc
000000d0: 0fbc 55bc 6147 483d d592 22bd 6476 1a3d
000000e0: e1ed ab3d 4e86 493c cdc5 2fbd 1704 56bc
000000f0: a133 eebc 55e4 0b3d 2178 9fbc df26 c73c
-0.09945194 0.076165654 0.025774378 -0.03693062 -0.0267738 -0.088086374 -0.019258441 0.07459452
0.053801257 -0.043180823 0.024367156 0.0506048 0.07160119 -0.017906148 -0.0069028754 0.052647028
0.0076689264 -0.04360102 0.0043608914 0.05586363 0.038721025 0.020731485 -0.060393877 -0.06222263
0.013942925 0.08100468 -0.03768561 -0.040070113 0.020511743 0.026859516 -0.08625864 0.017142124
0.070529014 -0.005140487 -0.04237041 -0.11623155 0.03027305 0.08874727 -0.067920454 -0.04740362
0.028003078 -0.09357113 0.02682511 0.040594712 -0.061187904 -0.045864277 0.078583755 0.086773284
-0.036678243 0.047551043 -0.10006679 -0.008279676 -0.013045325 0.048896197 -0.03969081 0.037710562
0.08394981 0.012300087 -0.042913247 -0.0130624985 -0.029077353 0.0341533 -0.019466462 0.024310527

fc_combined.4.weight f4 [1, 64]
00000000: df63 babc a37c a73a 5b3c c939 fb31 92bb
00000010: 562e 533d e834 c5bc cc3c 833d ea0c ef3b
00000020: 16d6 c53d f709 acbd 8f9b 223c d5d2 c23b
00000030: af51 8cbd abe7 2ebd 2b8c cabc 6957 5b3d
00000040: 896f 54bd 461b 1a3d 4553 f33c eed7 b8bb
00000050: 1c84 863d 5544 d3bd cb85 4abc 11b0 2e3c
00000060: fe8d 053d 43cb aabd 13d0 a8bb 29bb 803b
00000070: dfb7 53bd 9d05 bf3d c128 a23c e885 23bc
00000080: b194 ce3a 4f45 bcbd 04f3 cabd 230e 79bd
00000090: e578 d5bc 5012 8a3d 52c3 973d a344 88bd
000000a0: 59db c3bd e7c7 64bd ed12 9cbd 9291 bd3b
000000b0: 8210 103d 2767 b23d b93b 4e3d ec5c fdbc
000000c0: 72ff 7e3d 8b17 61bd 4520 923d c331 62bd
000000d0: a065 843d 5e39 443d 38e2 d8bd 7adf c53c
000000e0: 6727 82bb 56da 803d 5dff 6dbb f12e 06bc
000000f0: 7f23 ba3c 222c 72bc 31ea fc3b d13f 603d
-0.0227527 0.0012778234 0.00038382676 -0.0044615245 0.05155786 -0.02407308 0.064080805 0.0072952406
0.09659974 -0.08400338 0.009924783 0.0059455433 -0.068515174 -0.042701405 -0.02472504 0.053550158
-0.05186418 0.037623666 0.029702792 -0.005640975 0.065681666 -0.10315768 -0.012361 0.010662095
0.032606117 -0.0833955 -0.0051517575 0.003928561 -0.051689025 0.093272425 0.019794824 -0.009980656
0.0015760866 -0.09192907 -0.09909633 -0.060804497 -0.026058624 0.06741774 0.07410301 -0.066537164
-0.095633216 -0.055854704 -0.07620797 0.0057851756 0.035171993 0.08711081 0.050349925 -0.030928098
0.06225533 -0.054954093 0.07135061 -0.055223238 0.06464696 0.047906272 -0.10590023 0.024154413
-0.0039719823 0.06291644 -0.0036315538 -0.008189903 0.022722004 -0.01478103 0.0077183475 0.05474836
